py/camera/calib_parameters.npz (npz, 1960 bytes, 4 tensors)

mtx f8 [3, 3]
000000 64 53 49 21 a9 ee 7d 40 00 00 00 00 00 00 00 00
       478.9162915100371 0.0
000010 aa e5 40 19 5e 92 76 40 00 00 00 00 00 00 00 00
       361.14797330236854 0.0
000020 7d b2 03 7e 94 e0 7f 40 3c 91 87 5b 57 89 73 40
       510.0362529892371 312.5838275237654
000030 00 00 00 00 00 00 00 00 00 00 00 00 00 00 00 00
       0.0 0.0
000040 00 00 00 00 00 00 f0 3f
       1.0

dist f8 [1, 5]
000000 81 6a d6 fd 3b b8 d9 bf f3 85 5c 6a e3 99 ca 3f
       -0.40186977185081935 0.20782129949024827
000010 f7 fe aa 0f 09 1f 6f 3f c0 a5 aa e7 d8 c9 65 bf
       0.0037989785172100016 -0.0026597248482473634
000020 f2 42 42 46 e7 f2 ae bf
       -0.06044695599223883

rvecs f8 [18, 3, 1]
000000 90 88 38 c4 88 2a c4 bf ff 7d 85 a8 fc c3 c1 3f
       -0.15754804211707496 0.1387935469492589
000010 b0 86 b3 6f a2 a6 be 3f d1 60 15 b1 02 aa b7 bf
       0.11973014094430812 -0.09243790458038183
000020 69 06 10 59 a1 6d bc 3f 93 6b 79 b2 23 04 bf 3f
       0.11104782509212331 0.12115691287310275
000030 0c f5 be 4b e8 37 b7 bf 31 62 ed 53 2b 4d bd 3f
       -0.09069682931199824 0.11445875929838036
000040 41 f5 b2 ed 09 63 be 3f 8d b0 b8 a3 21 00 b5 bf
       0.1186987119026144 -0.08203325507264676
000050 10 31 f2 f4 66 0b b7 3f 75 c4 b2 aa 13 13 c2 3f
       0.09001773338440366 0.14120717844847133
000060 da 52 15 f0 2e b0 c7 3f 1e 43 e4 ba 64 f1 c2 3f
       0.18506418917481576 0.147991744285286
000070 f1 ed db 97 24 a1 c0 3f fb 7c a2 74 2e cd c6 3f
       0.12991769232745257 0.178136641455218
000080 aa 3e 17 03 16 af c8 3f 28 95 d3 12 21 2c b1 3f
       0.192843200215511 0.06707960805541247
000090 12 6d b5 4d 79 79 c4 3f 3f 29 fb 2d 38 a6 c7 3f
       0.15995708746309184 0.18476011510058218
0000a0 8d c5 b6 4e b6 45 b2 3f 5d 64 09 34 c9 7c c5 3f
       0.0713762228176817 0.16787066498617068
0000b0 f1 88 86 25 86 20 c7 3f fa 17 bb 80 b1 2e b4 3f
       0.18068005401898504 0.07883748429148332
0000c0 4d b5 5d cd fb 80 c3 3f 0f 9a 1f 4a 76 bf be 3f
       0.15237376716269538 0.12010897931723029
0000d0 e7 66 c3 68 9a 8b ba 3f ea 51 ce 78 de 9c dc bf
       0.1036926751870869 -0.4470745258088572
0000e0 6e de 69 36 fe 90 b2 3f dc ef b5 d0 5d 68 b0 3f
       0.07252491787391488 0.06409250588870868
0000f0 4c 45 c7 6a 52 22 e0 bf 28 30 cf 0c 10 53 af 3f
       -0.5041896901622436 0.06118059307445406
000100 98 46 96 18 99 40 b2 3f 75 92 0a ed 10 80 e3 bf
       0.07129818773526109 -0.6093830709183538
000110 1d 78 8f 28 f4 1e b2 3f bd 92 2a e9 e5 9f b0 3f
       0.07078481664891041 0.06493985121285113
000120 23 cd 7a 2d 79 f4 e7 3f f4 19 7b 22 30 60 a9 3f
       0.7485929382586715 0.04956198140057558
000130 11 92 2d 87 7b cb b8 3f 63 bc f7 50 86 a9 e9 3f
       0.09685489702457796 0.801943929805827
000140 db 9d 20 53 e7 3f be 3f 91 68 d4 64 ce 13 b8 3f
       0.11816259173848868 0.09405221902525997
000150 08 32 9a 3b 59 cc e1 3f 4d f4 f6 18 27 f1 ba 3f
       0.5561948932750633 0.10524219855774782
000160 0e 12 79 25 bb ca bc 3f f3 bf 7e 11 3c 17 da 3f
       0.11246843018404482 0.40766813000209295
000170 ec ce e8 89 bd a2 b9 3f 9c 68 bc 80 8c 47 ba 3f
       0.10013947121552363 0.1026542486473851
000180 f9 b0 b6 4a c2 74 ce 3f 99 e3 e0 87 4d ce b5 3f
       0.23793820045592165 0.085179181741195
000190 56 a4 2f d3 85 45 b7 3f 92 c5 bc bc ed 87 c6 3f
       0.09090458303366353 0.17602321353619438
0001a0 0d ff 96 37 aa 5d b3 3f 54 94 3c 19 a2 5b b9 3f
       0.07564796311544005 0.09905446163300385

tvecs f8 [18, 3, 1]
000000 6a 30 66 0f 25 68 e2 bf d4 a6 5d ca a2 9b c3 bf
       -0.5752129841580544 -0.15318713074821366
000010 5e 07 2c 9f 16 d2 30 40 7d ab df 1e b0 e1 e7 bf
       16.820657680749143 -0.7462998011591108
000020 6c a0 29 74 47 24 f4 bf 6e 3a fd f0 c0 77 30 40
       -1.258857206115887 16.46778780157404
000030 75 e6 d3 06 da 69 e8 bf ae 9f b9 9e 54 6d f4 bf
       -0.7629213460306362 -1.2766920280646263
000040 44 02 87 96 4e 6b 30 40 51 4b ec cf 83 e9 f6 bf
       16.41916790767779 -1.4320104715340742
000050 f7 3e 59 54 89 21 f4 bf 08 3a 0a fb a5 7f 2a 40
       -1.2581876082294323 13.249313206671118
000060 c5 16 e0 74 b8 fe 04 c0 88 a2 d5 1c a6 bc f9 bf
       -2.6243752604376334 -1.6085568548534486
000070 a2 d6 93 ec 00 38 2f 40 79 c9 dc 4f 31 53 25 c0
       15.60938205055874 -10.66248559541849
000080 55 d6 92 05 a3 c8 e9 bf 04 9e e2 7d ef c0 2f 40
       -0.8057417973383943 15.876827176964987
000090 05 25 54 24 db 8a 25 c0 79 9c 07 c2 d9 d6 c4 bf
       -10.771203170081671 -0.162806720486717
0000a0 9b 2d bc 56 94 89 2f 40 8c 27 ad a4 06 3c 26 c0
       15.76870986029717 -11.117238184105894
0000b0 51 4d 0e fb 85 95 c7 3f b3 58 a2 c2 42 6b 2f 40
       0.18425059088313359 15.709493715589224
0000c0 af e2 31 6e 18 fa f0 3f d4 32 8b 19 d7 28 1b c0
       1.061058454941456 -6.789883040543561
0000d0 b4 50 ff 32 ec 3d 31 40 d2 a5 ab d2 3f a3 f1 bf
       17.241885363896202 -1.1023557881656996
0000e0 11 7f ad b0 30 cc 0a c0 b9 2b 55 7d e5 c1 35 40
       -3.3497022440859685 21.75740798310628
0000f0 a9 fb 44 9d a2 c3 f7 bf 6f bf fe 86 b9 ad 09 c0
       -1.4852625029886701 -3.2098265215390067
000100 51 4a c7 09 30 c9 35 40 bc b5 34 6f 02 ac fe bf
       21.78588925471769 -1.916994509122886
000110 59 8a 92 87 dc 4e 06 c0 f9 fd 74 fb 90 2d 36 40
       -2.788506564292487 22.17799350363018
000120 04 55 f1 44 f7 32 05 c0 25 6d b2 6b c2 00 17 c0
       -2.6498856912754736 -5.750741656079559
000130 1a 01 61 3a 22 67 34 40 cc 7b e5 a6 5f 9d 08 c0
       20.402866028483096 -3.0768425978453475
000140 f7 4b c8 b4 6b 24 05 c0 f9 48 79 47 fc 13 31 40
       -2.6427835582376207 17.078068225012405
000150 b4 e4 99 81 4c 9d 07 c0 00 14 e1 11 56 88 fb bf
       -2.9518060803498773 -1.7207852075964638
000160 21 b7 2c 73 86 2b 2a 40 be 2d af ce ae 16 06 c0
       13.085010146339814 -2.761075606080083
000170 b7 c3 14 f4 87 b3 f8 bf 1d e3 ab 4e 48 e6 29 40
       -1.543830827180711 12.949770410997695
000180 ee 8f 44 0a 7e 11 08 c0 5a c3 fa dd 98 8d fc bf
       -3.0085411836789637 -1.784569613559333
000190 f6 02 30 6c 77 cf 27 40 69 a0 77 a6 fa 0e 0e c0
       11.905207997189319 -3.7573140149361746
0001a0 ae 66 d6 be 00 12 01 c0 77 ea 18 14 d7 da 25 40
       -2.1337904843502065 10.927422168771256
